…
cache_path='model', task_head_lr_weight=20.0, train_interpolation='bicubic', update_freq=1, vocab_size=64010, warmup_epochs=1, warmup_lr=1e-06, warmup_steps=-1, weight_decay=0.01, world_size=1, zero_stage=0)
Load 434867 image-text pairs from dataset/vqa.train.jsonl. 
Load 204705 image-text pairs from dataset/vqa.trainable_val.jsonl. 
Load 5346 image-text pairs from dataset/vqa.rest_val.jsonl. 
model_config = beit3_base_patch16_480_vqav2
Printing Model: BEiT3ForVisualQuestionAnswering(
  (beit3): BEiT3(
    (text_embed): TextEmbedding(64010, 768)
    (vision_embed): VisionEmbedding(
      (proj): Conv2d(3, 768, kernel_size=(16, 16), stride=(16, 16))
    )
    (encoder): Encoder(
      (dropout_module): Dropout(p=0.0, inplace=False)
      (embed_positions): MutliwayEmbedding(
        (A): PositionalEmbedding(903, 768)
        (B): PositionalEmbedding(1024, 768)
      )
      (layers): ModuleList(
        (0): EncoderLayer(
          (self_attn): MultiheadAttention(
            (k_proj): MultiwayNetwork(
              (A): Linear(in_features=768, out_features=768, bias=True)
              (B): Linear(in_features=768, out_features=768, bias=True)
            )
            (v_proj): MultiwayNetwork(
              (A): Linear(in_features=768, out_features=768, bias=True)
              (B): Linear(in_features=768, out_features=768, bias=True)
            )
            (q_proj): MultiwayNetwork(
              (A): Linear(in_features=768, out_features=768, bias=True)
              (B): Linear(in_features=768, out_features=768, bias=True)
            )
            (out_proj): MultiwayNetwork(
              (A): Linear(in_features=768, out_features=768, bias=True)
              (B): Linear(in_features=768, out_features=768, bias=True)
            )
            (inner_attn_ln): MultiwayNetwork(
              (A): LayerNorm((768,), eps=1e-05, elementwise_affine=True)
              (B): LayerNorm((768,), eps=1e-05, elementwise_affine=True)
            )
            (dropout_module): Dropout(p=0.0, inplace=False)
          )
          (self_attn_layer_norm): MultiwayNetwork(
            (A): LayerNorm((768,), eps=1e-05, elementwise_affine=True)
            (B): LayerNorm((768,), eps=1e-05, elementwise_affine=True)
          )
          (dropout_module): Dropout(p=0.0, inplace=False)
          (drop_path): DropPath(p=0.0)
          (ffn): MultiwayNetwork(
            (A): FeedForwardNetwork(
              (activation_dropout_module): Dropout(p=0.0, inplace=False)
              (dropout_module): Dropout(p=0.0, inplace=False)
              (fc1): Linear(in_features=768, out_features=3072, bias=True)
              (fc2): Linear(in_features=3072, out_features=768, bias=True)
              (ffn_layernorm): LayerNorm((3072,), eps=1e-05, elementwise_affine=True)
            )
            (B): FeedForwardNetwork(
              (activation_dropout_module): Dropout(p=0.0, inplace=False)
              (dropout_module): Dropout(p=0.0, inplace=False)
              (fc1): Linear(in_features=768, out_features=3072, bias=True)
              (fc2): Linear(in_features=3072, out_features=768, bias=True)
              (ffn_layernorm): LayerNorm((3072,), eps=1e-05, elementwise_affine=True)
            )
          )
          (final_layer_norm): MultiwayNetwork(
            (A): LayerNorm((768,), eps=1e-05, elementwise_affine=True)
            (B): LayerNorm((768,), eps=1e-05, elementwise_affine=True)
          )
        )
        (1): EncoderLayer(
          (self_attn): MultiheadAttention(
            (k_proj): MultiwayNetwork(
              (A): Linear(in_features=768, out_features=768, bias=True)
              (B): Linear(in_features=768, out_features=768, bias=True)
            )
            (v_proj): MultiwayNetwork(
              (A): Linear(in_features=768, out_features=768, bias=True)
              (B): Linear(in_features=768, out_features=768, bias=True)
            )
            (q_proj): MultiwayNetwork(
              (A): Linear(in_features=768, out_features=768, bias=True)
              (B): Linear(in_features=768, out_features=768, bias=True)
            )
            (out_proj): MultiwayNetwork(
              (A): Linear(in_features=768, out_features=768, bias=True)
              (B): Linear(in_features=768, out_features=768, bias=True)
            )
            (inner_attn_ln): MultiwayNetwork(
              (A): LayerNorm((768,), eps=1e-05, elementwise_affine=True)
              (B): LayerNorm((768,), eps=1e-05, elementwise_affine=True)
            )
            (dropout_module): Dropout(p=0.0, inplace=False)
          )
          (self_attn_layer_norm): MultiwayNetwork(
            (A): LayerNorm((768,), eps=1e-05, elementwise_affine=True)
            (B): LayerNorm((768,), eps=1e-05, elementwise_affine=True)
          )
          (dropout_module): Dropout(p=0.0, inplace=False)
          (drop_path): DropPath(p=0.009090909090909092)
          (ffn): MultiwayNetwork(
            (A): FeedForwardNetwork(
              (activation_dropout_module): Dropout(p=0.0, inplace=False)
              (dropout_module): Dropout(p=0.0, inplace=False)
              (fc1): Linear(in_features=768, out_features=3072, bias=True)
              (fc2): Linear(in_features=3072, out_features=768, bias=True)
              (ffn_layernorm): LayerNorm((3072,), eps=1e-05, elementwise_affine=True)
            )
            (B): FeedForwardNetwork(
              (activation_dropout_module): Dropout(p=0.0, inplace=False)
              (dropout_module): Dropout(p=0.0, inplace=False)
              (fc1): Linear(in_features=768, out_features=3072, bias=True)
              (fc2): Linear(in_features=3072, out_features=768, bias=True)
              (ffn_layernorm): LayerNorm((3072,), eps=1e-05, elementwise_affine=True)
            )
          )
          (final_layer_norm): MultiwayNetwork(
            (A): LayerNorm((768,), eps=1e-05, elementwise_affine=True)
            (B): LayerNorm((768,), eps=1e-05, elementwise_affine=True)
          )
        )
        (2): EncoderLayer(
          (self_attn): MultiheadAttention(
            (k_proj): MultiwayNetwork(
              (A): Linear(in_features=768, out_features=768, bias=True)
              (B): Linear(in_features=768, out_features=768, bias=True)
            )
            (v_proj): MultiwayNetwork(
              (A): Linear(in_features=768, out_features=768, bias=True)
              (B): Linear(in_features=768, out_features=768, bias=True)
            )
            (q_proj): MultiwayNetwork(
              (A): Linear(in_features=768, out_features=768, bias=True)
              (B): Linear(in_features=768, out_features=768, bias=True)
            )
            (out_proj): MultiwayNetwork(
              (A): Linear(in_features=768, out_features=768, bias=True)
              (B): Linear(in_features=768, out_features=768, bias=True)
            )
            (inner_attn_ln): MultiwayNetwork(
              (A): LayerNorm((768,), eps=1e-05, elementwise_affine=True)
              (B): LayerNorm((768,), eps=1e-05, elementwise_affine=True)
            )
            (dropout_module): Dropout(p=0.0, inplace=False)
          )
          (self_attn_layer_norm): MultiwayNetwork(
            (A): LayerNorm((768,), eps=1e-05, elementwise_affine=True)
            (B): LayerNorm((768,), eps=1e-05, elementwise_affine=True)
          )
          (dropout_module): Dropout(p=0.0, inplace=False)
          (drop_path): DropPath(p=0.018181818181818184)
          (ffn): MultiwayNetwork(
            (A): FeedForwardNetwork(
              (activation_dropout_module): Dropout(p=0.0, inplace=False)
              (dropout_module): Dropout(p=0.0, inplace=False)
              (fc1): Linear(in_features=768, out_features=3072, bias=True)
              (fc2): Linear(in_features=3072, out_features=768, bias=True)
              (ffn_layernorm): LayerNorm((3072,), eps=1e-05, elementwise_affine=True)
            )
            (B): FeedForwardNetwork(
              (activation_dropout_module): Dropout(p=0.0, inplace=False)
              (dropout_module): Dropout(p=0.0, inplace=False)
              (fc1): Linear(in_features=768, out_features=3072, bias=True)
              (fc2): Linear(in_features=3072, out_features=768, bias=True)
              (ffn_layernorm): LayerNorm((3072,), eps=1e-05, elementwise_affine=True)
            )
          )
          (final_layer_norm): MultiwayNetwork(
            (A): LayerNorm((768,), eps=1e-05, elementwise_affine=True)
            (B): LayerNorm((768,), eps=1e-05, elementwise_affine=True)
          )
        )
        (3): EncoderLayer(
          (self_attn): MultiheadAttention(
            (k_proj): MultiwayNetwork(
              (A): Linear(in_features=768, out_features=768, bias=True)
              (B): Linear(in_features=768, out_features=768, bias=True)
            )
            (v_proj): MultiwayNetwork(
              (A): Linear(in_features=768, out_features=768, bias=True)
              (B): Linear(in_features=768, out_features=768, bias=True)
            )
            (q_proj): MultiwayNetwork(
              (A): Linear(in_features=768, out_features=768, bias=True)
              (B): Linear(in_features=768, out_features=768, bias=True)
            )
            (out_proj): MultiwayNetwork(
              (A): Linear(in_features=768, out_features=768, bias=True)
              (B): Linear(in_features=768, out_features=768, bias=True)
            )
            (inner_attn_ln): MultiwayNetwork(
              (A): LayerNorm((768,), eps=1e-05, elementwise_affine=True)
              (B): LayerNorm((768,), eps=1e-05, elementwise_affine=True)
            )
            (dropout_module): Dropout(p=0.0, inplace=False)
          )
          (self_attn_layer_norm): MultiwayNetwork(
            (A): LayerNorm((768,), eps=1e-05, elementwise_affine=True)
            (B): LayerNorm((768,), eps=1e-05, elementwise_affine=True)
          )
          (dropout_module): Dropout(p=0.0, inplace=False)
          (drop_path): DropPath(p=0.027272727272727275)
          (ffn): MultiwayNetwork(
            (A): FeedForwardNetwork(
              (activation_dropout_module): Dropout(p=0.0, inplace=False)
              (dropout_module): Dropout(p=0.0, inplace=False)
              (fc1): Linear(in_features=768, out_features=3072, bias=True)
              (fc2): Linear(in_features=3072, out_features=768, bias=True)
              (ffn_layernorm): LayerNorm((3072,), eps=1e-05, elementwise_affine=True)
            )
            (B): FeedForwardNetwork(
              (activation_dropout_module): Dropout(p=0.0, inplace=False)
              (dropout_module): Dropout(p=0.0, inplace=False)
              (fc1): Linear(in_features=768, out_features=3072, bias=True)
              (fc2): Linear(in_features=3072, out_features=768, bias=True)
              (ffn_layernorm): LayerNorm((3072,), eps=1e-05, elementwise_affine=True)
            )
          )
          (final_layer_norm): MultiwayNetwork(
            (A): LayerNorm((768,), eps=1e-05, elementwise_affine=True)
            (B): LayerNorm((768,), eps=1e-05, elementwise_affine=True)
          )
        )
        (4): EncoderLayer(
          (self_attn): MultiheadAttention(
            (k_proj): MultiwayNetwork(
              (A): Linear(in_features=768, out_features=768, bias=True)
              (B): Linear(in_features=768, out_features=768, bias=True)
            )
            (v_proj): MultiwayNetwork(
              (A): Linear(in_features=768, out_features=768, bias=True)
              (B): Linear(in_features=768, out_features=768, bias=True)
            )
            (q_proj): MultiwayNetwork(
              (A): Linear(in_features=768, out_features=768, bias=True)
              (B): Linear(in_features=768, out_features=768, bias=True)
            )
            (out_proj): MultiwayNetwork(
              (A): Linear(in_features=768, out_features=768, bias=True)
              (B): Linear(in_features=768, out_features=768, bias=True)
            )
            (inner_attn_ln): MultiwayNetwork(
              (A): LayerNorm((768,), eps=1e-05, elementwise_affine=True)
              (B): LayerNorm((768,), eps=1e-05, elementwise_affine=True)
            )
            (dropout_module): Dropout(p=0.0, inplace=False)
          )
          (self_attn_layer_norm): MultiwayNetwork(
            (A): LayerNorm((768,), eps=1e-05, elementwise_affine=True)
            (B): LayerNorm((768,), eps=1e-05, elementwise_affine=True)
          )
          (dropout_module): Dropout(p=0.0, inplace=False)
          (drop_path): DropPath(p=0.03636363636363637)
          (ffn): MultiwayNetwork(
            (A): FeedForwardNetwork(
              (activation_dropout_module): Dropout(p=0.0, inplace=False)
              (dropout_module): Dropout(p=0.0, inplace=False)
              (fc1): Linear(in_features=768, out_features=3072, bias=True)
              (fc2): Linear(in_features=3072, out_features=768, bias=True)
              (ffn_layernorm): LayerNorm((3072,), eps=1e-05, elementwise_affine=True)
            )
            (B): FeedForwardNetwork(
              (activation_dropout_module): Dropout(p=0.0, inplace=False)
              (dropout_module): Dropout(p=0.0, inplace=False)
              (fc1): Linear(in_features=768, out_features=3072, bias=True)
              (fc2): Linear(in_features=3072, out_features=768, bias=True)
              (ffn_layernorm): LayerNorm((3072,), eps=1e-05, elementwise_affine=True)
            )
          )
          (final_layer_norm): MultiwayNetwork(
            (A): LayerNorm((768,), eps=1e-05, elementwise_affine=True)
            (B): LayerNorm((768,), eps=1e-05, elementwise_affine=True)
          )
        )
        (5): EncoderLayer(
          (self_attn): MultiheadAttention(
            (k_proj): MultiwayNetwork(
              (A): Linear(in_features=768, out_features=768, bias=True)
              (B): Linear(in_features=768, out_features=768, bias=True)
            )
            (v_proj): MultiwayNetwork(
              (A): Linear(in_features=768, out_features=768, bias=True)
              (B): Linear(in_features=768, out_features=768, bias=True)
            )
            (q_proj): MultiwayNetwork(
              (A): Linear(in_features=768, out_features=768, bias=True)
              (B): Linear(in_features=768, out_features=768, bias=True)
            )
            (out_proj): MultiwayNetwork(
              (A): Linear(in_features=768, out_features=768, bias=True)
              (B): Linear(in_features=768, out_features=768, bias=True)
            )
            (inner_attn_ln): MultiwayNetwork(
              (A): LayerNorm((768,), eps=1e-05, elementwise_affine=True)
              (B): LayerNorm((768,), eps=1e-05, elementwise_affine=True)
            )
            (dropout_module): Dropout(p=0.0, inplace=False)
          )
          (self_attn_layer_norm): MultiwayNetwork(
            (A): LayerNorm((768,), eps=1e-05, elementwise_affine=True)
            (B): LayerNorm((768,), eps=1e-05, elementwise_affine=True)
          )
          (dropout_module): Dropout(p=0.0, inplace=False)
          (drop_path): DropPath(p=0.04545454545454546)
          (ffn): MultiwayNetwork(
            (A): FeedForwardNetwork(
              (activation_dropout_module): Dropout(p=0.0, inplace=False)
              (dropout_module): Dropout(p=0.0, inplace=False)
              (fc1): Linear(in_features=768, out_features=3072, bias=True)
              (fc2): Linear(in_features=3072, out_features=768, bias=True)
              (ffn_layernorm): LayerNorm((3072,), eps=1e-05, elementwise_affine=True)
            )
            (B): FeedForwardNetwork(
              (activation_dropout_module): Dropout(p=0.0, inplace=False)
              (dropout_module): Dropout(p=0.0, inplace=False)
              (fc1): Linear(in_features=768, out_features=3072, bias=True)
              (fc2): Linear(in_features=3072, out_features=768, bias=True)
              (ffn_layernorm): LayerNorm((3072,), eps=1e-05, elementwise_affine=True)
            )
          )
          (final_layer_norm): MultiwayNetwork(
            (A): LayerNorm((768,), eps=1e-05, elementwise_affine=True)
            (B): LayerNorm((768,), eps=1e-05, elementwise_affine=True)
          )
        )
        (6): EncoderLayer(
          (self_attn): MultiheadAttention(
            (k_proj): MultiwayNetwork(
              (A): Linear(in_features=768, out_features=768, bias=True)
              (B): Linear(in_features=768, out_features=768, bias=True)
            )
            (v_proj): MultiwayNetwork(
              (A): Linear(in_features=768, out_features=768, bias=True)
              (B): Linear(in_features=768, out_features=768, bias=True)
            )
            (q_proj): MultiwayNetwork(
              (A): Linear(in_features=768, out_features=768, bias=True)
              (B): Linear(in_features=768, out_features=768, bias=True)
            )
            (out_proj): MultiwayNetwork(
              (A): Linear(in_features=768, out_features=768, bias=True)
              (B): Linear(in_features=768, out_features=768, bias=True)
            )
            (inner_attn_ln): MultiwayNetwork(
              (A): LayerNorm((768,), eps=1e-05, elementwise_affine=True)
              (B): LayerNorm((768,), eps=1e-05, elementwise_affine=True)
            )
            (dropout_module): Dropout(p=0.0, inplace=False)
          )
          (self_attn_layer_norm): MultiwayNetwork(
            (A): LayerNorm((768,), eps=1e-05, elementwise_affine=True)
            (B): LayerNorm((768,), eps=1e-05, elementwise_affine=True)
          )
          (dropout_module): Dropout(p=0.0, inplace=False)
          (drop_path): DropPath(p=0.05454545454545455)
          (ffn): MultiwayNetwork(
            (A): FeedForwardNetwork(
              (activation_dropout_module): Dropout(p=0.0, inplace=False)
              (dropout_module): Dropout(p=0.0, inplace=False)
              (fc1): Linear(in_features=768, out_features=3072, bias=True)
              (fc2): Linear(in_features=3072, out_features=768, bias=True)
              (ffn_layernorm): LayerNorm((3072,), eps=1e-05, elementwise_affine=True)
            )
            (B): FeedForwardNetwork(
              (activation_dropout_module): Dropout(p=0.0, inplace=False)
              (dropout_module): Dropout(p=0.0, inplace=False)
              (fc1): Linear(in_features=768, out_features=3072, bias=True)
              (fc2): Linear(in_features=3072, out_features=768, bias=True)
              (ffn_layernorm): LayerNorm((3072,), eps=1e-05, elementwise_affine=True)
            )
          )
          (final_layer_norm): MultiwayNetwork(
            (A): LayerNorm((768,), eps=1e-05, elementwise_affine=True)
            (B): LayerNorm((768,), eps=1e-05, elementwise_affine=True)
          )
        )
        (7): EncoderLayer(
          (self_attn): MultiheadAttention(
            (k_proj): MultiwayNetwork(
              (A): Linear(in_features=768, out_features=768, bias=True)
              (B): Linear(in_features=768, out_features=768, bias=True)
            )
            (v_proj): MultiwayNetwork(
              (A): Linear(in_features=768, out_features=768, bias=True)
              (B): Linear(in_features=768, out_features=768, bias=True)
            )
            (q_proj): MultiwayNetwork(
              (A): Linear(in_features=768, out_features=768, bias=True)
              (B): Linear(in_features=768, out_features=768, bias=True)
            )
            (out_proj): MultiwayNetwork(
              (A): Linear(in_features=768, out_features=768, bias=True)
              (B): Linear(in_features=768, out_features=768, bias=True)
            )
            (inner_attn_ln): MultiwayNetwork(
              (A): LayerNorm((768,), eps=1e-05, elementwise_affine=True)
              (B): LayerNorm((768,), eps=1e-05, elementwise_affine=True)
            )
            (dropout_module): Dropout(p=0.0, inplace=False)
          )
          (self_attn_layer_norm): MultiwayNetwork(
            (A): LayerNorm((768,), eps=1e-05, elementwise_affine=True)
            (B): LayerNorm((768,), eps=1e-05, elementwise_affine=True)
          )
          (dropout_module): Dropout(p=0.0, inplace=False)
          (drop_path): DropPath(p=0.06363636363636364)
          (ffn): MultiwayNetwork(
            (A): FeedForwardNetwork(
              (activation_dropout_module): Dropout(p=0.0, inplace=False)
              (dropout_module): Dropout(p=0.0, inplace=False)
              (fc1): Linear(in_features=768, out_features=3072, bias=True)
              (fc2): Linear(in_features=3072, out_features=768, bias=True)
              (ffn_layernorm): LayerNorm((3072,), eps=1e-05, elementwise_affine=True)
            )
            (B): FeedForwardNetwork(
              (activation_dropout_module): Dropout(p=0.0, inplace=False)
              (dropout_module): Dropout(p=0.0, inplace=False)
              (fc1): Linear(in_features=768, out_features=3072, bias=True)
              (fc2): Linear(in_features=3072, out_features=768, bias=True)
              (ffn_layernorm): LayerNorm((3072,), eps=1e-05, elementwise_affine=True)
            )
          )
          (final_layer_norm): MultiwayNetwork(
            (A): LayerNorm((768,), eps=1e-05, elementwise_affine=True)
            (B): LayerNorm((768,), eps=1e-05, elementwise_affine=True)
          )
        )
        (8): EncoderLayer(
          (self_attn): MultiheadAttention(
            (k_proj): MultiwayNetwork(
              (A): Linear(in_features=768, out_features=768, bias=True)
              (B): Linear(in_features=768, out_features=768, bias=True)
            )
            (v_proj): MultiwayNetwork(
              (A): Linear(in_features=768, out_features=768, bias=True)
              (B): Linear(in_features=768, out_features=768, bias=True)
            )
            (q_proj): MultiwayNetwork(
              (A): Linear(in_features=768, out_features=768, bias=True)
              (B): Linear(in_features=768, out_features=768, bias=True)
            )
            (out_proj): MultiwayNetwork(
              (A): Linear(in_features=768, out_features=768, bias=True)
              (B): Linear(in_features=768, out_features=768, bias=True)
            )
            (inner_attn_ln): MultiwayNetwork(
              (A): LayerNorm((768,), eps=1e-05, elementwise_affine=True)
              (B): LayerNorm((768,), eps=1e-05, elementwise_affine=True)
            )
            (dropout_module): Dropout(p=0.0, inplace=False)
          )
          (self_attn_layer_norm): MultiwayNetwork(
            (A): LayerNorm((768,), eps=1e-05, elementwise_affine=True)
            (B): LayerNorm((768,), eps=1e-05, elementwise_affine=True)
          )
          (dropout_module): Dropout(p=0.0, inplace=False)
          (drop_path): DropPath(p=0.07272727272727274)
          (ffn): MultiwayNetwork(
            (A): FeedForwardNetwork(
              (activation_dropout_module): Dropout(p=0.0, inplace=False)
              (dropout_module): Dropout(p=0.0, inplace=False)
              (fc1): Linear(in_features=768, out_features=3072, bias=True)
              (fc2): Linear(in_features=3072, out_features=768, bias=True)
              (ffn_layernorm): LayerNorm((3072,), eps=1e-05, elementwise_affine=True)
            )
            (B): FeedForwardNetwork(
              (activation_dropout_module): Dropout(p=0.0, inplace=False)
              (dropout_module): Dropout(p=0.0, inplace=False)
              (fc1): Linear(in_features=768, out_features=3072, bias=True)
              (fc2): Linear(in_features=3072, out_features=768, bias=True)
              (ffn_layernorm): LayerNorm((3072,), eps=1e-05, elementwise_affine=True)
            )
          )
          (final_layer_norm): MultiwayNetwork(
            (A): LayerNorm((768,), eps=1e-05, elementwise_affine=True)
            (B): LayerNorm((768,), eps=1e-05, elementwise_affine=True)
          )
        )
        (9): EncoderLayer(
          (self_attn): MultiheadAttention(
            (k_proj): MultiwayNetwork(
              (A): Linear(in_features=768, out_features=768, bias=True)
              (B): Linear(in_features=768, out_features=768, bias=True)
            )
            (v_proj): MultiwayNetwork(
              (A): Linear(in_features=768, out_features=768, bias=True)
              (B): Linear(in_features=768, out_features=768, bias=True)
            )
            (q_proj): MultiwayNetwork(
              (A): Linear(in_features=768, out_features=768, bias=True)
              (B): Linear(in_features=768, out_features=768, bias=True)
            )
            (out_proj): MultiwayNetwork(
              (A): Linear(in_features=768, out_features=768, bias=True)
              (B): Linear(in_features=768, out_features=768, bias=True)
            )
            (inner_attn_ln): MultiwayNetwork(
              (A): LayerNorm((768,), eps=1e-05, elementwise_affine=True)
              (B): LayerNorm((768,), eps=1e-05, elementwise_affine=True)
            )
            (dropout_module): Dropout(p=0.0, inplace=False)
          )
          (self_attn_layer_norm): MultiwayNetwork(
            (A): LayerNorm((768,), eps=1e-05, elementwise_affine=True)
            (B): LayerNorm((768,), eps=1e-05, elementwise_affine=True)
          )
          (dropout_module): Dropout(p=0.0, inplace=False)
          (drop_path): DropPath(p=0.08181818181818183)
          (ffn): MultiwayNetwork(
            (A): FeedForwardNetwork(
              (activation_dropout_module): Dropout(p=0.0, inplace=False)
              (dropout_module): Dropout(p=0.0, inplace=False)
              (fc1): Linear(in_features=768, out_features=3072, bias=True)
              (fc2): Linear(in_features=3072, out_features=768, bias=True)
              (ffn_layernorm): LayerNorm((3072,), eps=1e-05, elementwise_affine=True)
            )
            (B): FeedForwardNetwork(
              (activation_dropout_module): Dropout(p=0.0, inplace=False)
              (dropout_module): Dropout(p=0.0, inplace=False)
              (fc1): Linear(in_features=768, out_features=3072, bias=True)
              (fc2): Linear(in_features=3072, out_features=768, bias=True)
              (ffn_layernorm): LayerNorm((3072,), eps=1e-05, elementwise_affine=True)
            )
          )
          (final_layer_norm): MultiwayNetwork(
            (A): LayerNorm((768,), eps=1e-05, elementwise_affine=True)
            (B): LayerNorm((768,), eps=1e-05, elementwise_affine=True)
          )
        )
        (10): EncoderLayer(
          (self_attn): MultiheadAttention(
            (k_proj): MultiwayNetwork(
              (A): Linear(in_features=768, out_features=768, bias=True)
              (B): Linear(in_features=768, out_features=768, bias=True)
            )
            (v_proj): MultiwayNetwork(
              (A): Linear(in_features=768, out_features=768, bias=True)
              (B): Linear(in_features=768, out_features=768, bias=True)
            )
            (q_proj): MultiwayNetwork(
              (A): Linear(in_features=768, out_features=768, bias=True)
              (B): Linear(in_features=768, out_features=768, bias=True)
            )
            (out_proj): MultiwayNetwork(
              (A): Linear(in_features=768, out_features=768, bias=True)
              (B): Linear(in_features=768, out_features=768, bias=True)
            )
            (inner_attn_ln): MultiwayNetwork(
              (A): LayerNorm((768,), eps=1e-05, elementwise_affine=True)
              (B): LayerNorm((768,), eps=1e-05, elementwise_affine=True)
            )
            (dropout_module): Dropout(p=0.0, inplace=False)
          )
          (self_attn_layer_norm): MultiwayNetwork(
            (A): LayerNorm((768,), eps=1e-05, elementwise_affine=True)
            (B): LayerNorm((768,), eps=1e-05, elementwise_affine=True)
          )
          (dropout_module): Dropout(p=0.0, inplace=False)
          (drop_path): DropPath(p=0.09090909090909093)
          (ffn): MultiwayNetwork(
            (A): FeedForwardNetwork(
              (activation_dropout_module): Dropout(p=0.0, inplace=False)
              (dropout_module): Dropout(p=0.0, inplace=False)
              (fc1): Linear(in_features=768, out_features=3072, bias=True)
              (fc2): Linear(in_features=3072, out_features=768, bias=True)
              (ffn_layernorm): LayerNorm((3072,), eps=1e-05, elementwise_affine=True)
            )
            (B): FeedForwardNetwork(
              (activation_dropout_module): Dropout(p=0.0, inplace=False)
              (dropout_module): Dropout(p=0.0, inplace=False)
              (fc1): Linear(in_features=768, out_features=3072, bias=True)
              (fc2): Linear(in_features=3072, out_features=768, bias=True)
              (ffn_layernorm): LayerNorm((3072,), eps=1e-05, elementwise_affine=True)
            )
          )
          (final_layer_norm): MultiwayNetwork(
            (A): LayerNorm((768,), eps=1e-05, elementwise_affine=True)
            (B): LayerNorm((768,), eps=1e-05, elementwise_affine=True)
          )
        )
        (11): EncoderLayer(
          (self_attn): MultiheadAttention(
            (k_proj): MultiwayNetwork(
              (A): Linear(in_features=768, out_features=768, bias=True)
              (B): Linear(in_features=768, out_features=768, bias=True)
            )
            (v_proj): MultiwayNetwork(
              (A): Linear(in_features=768, out_features=768, bias=True)
              (B): Linear(in_features=768, out_features=768, bias=True)
            )
            (q_proj): MultiwayNetwork(
              (A): Linear(in_features=768, out_features=768, bias=True)
              (B): Linear(in_features=768, out_features=768, bias=True)
            )
            (out_proj): MultiwayNetwork(
              (A): Linear(in_features=768, out_features=768, bias=True)
              (B): Linear(in_features=768, out_features=768, bias=True)
            )
            (inner_attn_ln): MultiwayNetwork(
              (A): LayerNorm((768,), eps=1e-05, elementwise_affine=True)
              (B): LayerNorm((768,), eps=1e-05, elementwise_affine=True)
            )
            (dropout_module): Dropout(p=0.0, inplace=False)
          )
          (self_attn_layer_norm): MultiwayNetwork(
            (A): LayerNorm((768,), eps=1e-05, elementwise_affine=True)
            (B): LayerNorm((768,), eps=1e-05, elementwise_affine=True)
          )
          (dropout_module): Dropout(p=0.0, inplace=False)
          (drop_path): DropPath(p=0.1)
          (ffn): MultiwayNetwork(
            (A): FeedForwardNetwork(
              (activation_dropout_module): Dropout(p=0.0, inplace=False)
              (dropout_module): Dropout(p=0.0, inplace=False)
              (fc1): Linear(in_features=768, out_features=3072, bias=True)
              (fc2): Linear(in_features=3072, out_features=768, bias=True)
              (ffn_layernorm): LayerNorm((3072,), eps=1e-05, elementwise_affine=True)
            )
            (B): FeedForwardNetwork(
              (activation_dropout_module): Dropout(p=0.0, inplace=False)
              (dropout_module): Dropout(p=0.0, inplace=False)
              (fc1): Linear(in_features=768, out_features=3072, bias=True)
              (fc2): Linear(in_features=3072, out_features=768, bias=True)
              (ffn_layernorm): LayerNorm((3072,), eps=1e-05, elementwise_affine=True)
            )
          )
          (final_layer_norm): MultiwayNetwork(
            (A): LayerNorm((768,), eps=1e-05, elementwise_affine=True)
            (B): LayerNorm((768,), eps=1e-05, elementwise_affine=True)
          )
        )
      )
    )
  )
  (pooler): Pooler(
    (norm): LayerNorm((768,), eps=1e-05, elementwise_affine=True)
    (dense): Linear(in_features=768, out_features=768, bias=True)
    (activation): Tanh()
  )
  (head): Sequential(
    (0): Linear(in_features=768, out_features=1536, bias=True)
    (1): LayerNorm((1536,), eps=1e-05, elementwise_affine=True)
    (2): GELU(approximate='none')
    (3): Linear(in_features=1536, out_features=3129, bias=True)
  )
)
Load ckpt from beit3_base_patch16_480_vqa.pth
Load state_dict by model_key = model
number of params: 228110649
number of trainable params: 5993529
LR = 0.00001000
Batch size = 32
Update frequent = 1
Number of training examples = 319786
Number of training training per epoch = 9993
Assigned values = [1.0, 20.0]
Param groups = {
  "layer_1_decay": {
…
